experiments/pretrained/DBSProblem_PhiNN_fwdEuler_betas_0-1_0-1_0-1_1-0_0-0_m64_nTh3_lr0-012023_05_25_09_57_30_checkpt.pth (torch, 75381 bytes, 8 tensors)

0.layers.0.weight f8 [64, 5]
-0.06559084721984718 -0.2380454062505225 -0.142158798393032 0.1691901304593094 0.6247684920122998 -0.06578832602659751 1.7646254849729237 -1.2110407759833677
1.9554323650007863 0.37737280205964974 0.2598365629079416 0.4025250015418601 1.4471108141781026 0.032205964554479785 0.23317567025533648 -0.3155934061547971
2.118548930843398 0.009375038292201543 -0.7650571760273179 0.09117652175087375 -0.09642967811163444 0.4976193033906934 0.041554252897866184 3.3863519801864213
-0.4667775675877185 0.09466608401512257 -0.2952408410481865 0.207591891424186 -3.2756482101805644 0.4312147869737135 0.42594480293810427 -2.3356615650041377
-1.541133965225209 0.6752133534870083 -0.7663318385622179 0.3268060576432866 0.22671370384763212 -0.9062595265562455 -0.44957056551085145 -0.978857274775003
-0.37750291380279705 -0.7843006373591616 0.7062097714779549 0.4923389804676182 1.1523167936743224 -0.12259990331099596 1.5051148617276873 0.4330352710021235
2.879559484027285 -0.5823232705238256 -0.4524845349316019 3.3917174040404228 1.0957947797217507 1.4377090437646374 0.01300095529860753 -0.2544839827477182
0.981146643909858 1.0262190969290919 0.16507923730577093 0.39430302765429776 -0.2390343124702082 1.487086369805571 0.7222582384718482 -0.5996579400314839
0.34763345731428297 0.0031784718704602156 1.1395018473906513 0.6645503343987296 1.1277460705591624 -0.1303358224819022 0.10028680167199697 0.44681952874006853
1.9576412796318692 -0.5317666353324778 0.16250026465118747 -0.12467323949335858 1.9852294420069116 -2.9198932840246563 1.847671578837735 -0.1755928474570958
0.3401866874592164 -0.2610355572283577 2.615068094787878 1.6633795797231363 0.3446803736693159 -0.19411259449745502 0.9151941707244979 1.0768661784747842
1.023366141999011 1.1774772745160065 0.17338804573672345 -0.43583862790591 0.14979862009730713 -0.46794624189053147 -0.09583348580355551 -0.34921615150605967
1.8136000866216042 -1.597472458843779 -0.9076162670288324 -0.4746249800765881 0.2614766326351094 0.9111514423418835 0.34555602897581167 -1.0772648929250364
-0.7028803302603347 -0.28280759967528774 0.00851554888414407 0.05663453214666843 -0.07882413236266618 0.02899857291639483 -0.2949535379403745 -3.471526266721831
-5.084572606880726 1.65171168127631 0.10129619541828364 -0.193123824083386 1.6782444956545781 -2.97750282576301 1.070951900634071 -0.14332840854097978
-0.3667243994859626 0.1000052396507108 0.34648253910252763 0.6362858755454903 1.1513669250253784 -0.5444333070331365 5.919843315593251 3.488805894720327
-2.025818955332144 1.3635577110330483 0.12197289988627127 -1.3938583856881623 -0.4857476549895813 -2.5675169671250786 0.5966558174406391 -0.38141184271630496
1.289867210480263 1.130932595782325 -0.8530831396159398 0.6597193115855515 0.19303090089411717 3.0067716634108708 1.6799858498496654 -0.8209782135521124
0.31861824936291955 -0.45698681572170935 1.6298911052656209 0.051874681971123174 1.2138958200963765 0.009244704117789783 -0.08998132061696555 0.2132142426280227
0.11689309547786877 2.338761314782011 -0.4381067352001315 -0.37163232406774666 0.07525841735765229 -0.6738380316344122 0.9106446593345543 0.11723852572747542
0.38367346984719003 1.522203913169011 -0.28584054708725415 -2.2368251412585014 -0.6914803774111344 0.29737610077007 -2.110679538685747 -2.3371723516164695
-0.02927331843266764 -2.6191344616007957 0.09134412870110245 3.0208508979122177 3.1338650072535152 -1.2914065990953927 0.26792347313070314 0.07767353795411776
-0.5765010698161098 -0.7631105502522705 -1.8377022532982203 0.6293083177829026 -0.2324400933416959 -0.43425069409096123 -0.07023387045080902 0.24570192230713683
0.7278805053251798 0.10074450583750165 -1.4317526708643513 -0.20973043887896406 -0.9441934999004769 0.3693641405543908 -0.3775217270618567 4.628726064641817
2.642028991036553 0.8099245296486244 0.11087084666606666 0.12238715486266036 -2.2647004140234768 -1.4676821764674748 -1.302783306771874 -0.1398912394117428
-0.37961972015090345 5.4511737069268165 1.7105583175279448 0.9310158353069752 0.0986533879612014 -0.23259546734420583 9.77535591033873 3.8881132686848723
3.099017348088487 1.8523673709991775 -0.4932100269663568 3.3668586947717714 2.1102210081216497 2.364225511546312 0.02439130691774819 0.243403586717349
-1.240098820709696 -1.0046546688411708 0.1501286355397601 -0.3755909840467379 0.4358388146001765 1.4578739213456604 4.24813197721234 -1.3396064903071705
-0.1898995225241362 0.28139788049030506 0.6957090749340644 -0.25122473374505305 -0.778870726521859 -0.7829977057699561 0.08091792187338373 -0.48479450636134297
-0.70012884451512 -1.934571338694358 0.5579506635789504 -0.25596834929300905 -0.2214414590472684 0.7163864268962702 0.1358003516912803 0.8353796107389805
0.006975652960031791 2.5681271758267368 0.01820593524807495 -4.13155838092597 -3.4308400179645258 -0.24072261790091554 1.5053075852311577 -0.8507690618622151
-0.9105886155761189 -0.3928372556039526 0.10426193325531408 -1.7655647158535832 1.462054456910168 -0.558371639673976 0.19161749089668365 0.09438384401661154
00000000: aee6 b9cf 8fca b0bf 3c8e 6799 4578 cebf
00000010: c3e6 f76e 4232 c2bf 7b79 90ae 05a8 c53f
00000020: 3873 187e 1afe e33f 9429 bef4 80d7 b0bf
00000030: 7c59 baee e73b fc3f 5389 ef4a 6c60 f3bf
00000040: 357e 9372 7349 ff3f babf cf40 e026 d83f
00000050: 71a8 ff88 29a1 d03f f674 5c39 f8c2 d93f
00000060: 7e53 49ab 5d27 f73f d2c8 fed8 4c7d a03f
00000070: 381a fc4a b3d8 cd3f 8728 91af ae32 d4bf
00000080: d595 27c8 c9f2 0040 80f7 e856 3833 833f
00000090: 3270 d32f 597b e8bf cf41 1533 5857 b73f
000000a0: 5c70 da89 9daf b8bf 12f7 7aa2 fed8 df3f
000000b0: 307f 695a 9946 a53f 062a fdb4 3f17 0b40
000000c0: 6eec d204 afdf ddbf a1a5 e256 093c b83f
000000d0: 32b6 2fd7 39e5 d2bf e473 4a00 5f92 ca3f
000000e0: 6369 7f0c 8734 0ac0 20a3 e6e7 0599 db3f
000000f0: f74c a1fd ad42 db3f 50bc a154 6faf 02c0
00000100: 6a5a b616 7ca8 f8bf f392 e108 599b e53f
00000110: cf43 1059 ca85 e8bf 599b 6df4 63ea d43f
00000120: 6851 ca63 f404 cd3f abeb 87fa 1300 edbf
00000130: d740 079f c3c5 dcbf c587 d37d cc52 efbf
00000140: c55f 3bfb 0129 d8bf d510 76a6 fd18 e9bf
00000150: 62a1 133c 4599 e63f bde1 e95a 7b82 df3f
00000160: 9b67 f7bb e36f f23f 44a7 360f b562 bfbf
00000170: f080 3d52 f314 f83f d5fd bd91 d9b6 db3f
00000180: 4545 967b 5609 0740 db2f 5369 64a2 e2bf
00000190: 2a87 deb1 81f5 dcbf 6505 fdbb 3c22 0b40
000001a0: e384 601b 6088 f13f ed1e c232 db00 f73f
000001b0: ad1e 98ae 3ea0 8a3f 3e77 d02f 7749 d0bf
000001c0: 3289 85a5 8d65 ef3f 2975 3db7 646b f03f
000001d0: 5d0b bd02 5121 c53f a74b 1fc4 423c d93f
000001e0: c337 5725 ad98 cebf d146 ca13 1bcb f73f
000001f0: dd19 304f bd1c e73f 3c1a 27d9 6530 e3bf
00000200: a841 8a66 a03f d63f 7628 8417 bd09 6a3f
00000210: 1164 044a 663b f23f a23a 1910 ff43 e53f
00000220: e1e7 b376 3f0b f23f cf4c 871f d8ae c0bf
00000230: 86d3 6655 65ac b93f 45c6 c9ef b098 dc3f
00000240: 7318 95a9 7f52 ff3f 236c 7b76 3b04 e1bf
00000250: 3754 2205 cfcc c43f 2573 4fde 95ea bfbf
00000260: c19d 87f2 7fc3 ff3f 4891 9502 f15b 07c0
00000270: 47b5 cd12 1090 fd3f e8af 9e90 d379 c6bf
00000280: 8900 4b62 9ec5 d53f 46e4 587b ceb4 d0bf
00000290: 6c6a 3fd2 a8eb 0440 e9eb fbe7 339d fa3f
000002a0: bae5 1e45 3e0f d63f 15dc 8d76 aed8 c8bf
000002b0: c60c 1849 4549 ed3f b07b ab07 d83a f13f
000002c0: d882 fb2c b55f f03f 7a45 1d69 f2d6 f23f
000002d0: 3271 fa58 9431 c63f 121f 4cb3 c7e4 dbbf
000002e0: f7e4 26e7 992c c33f 162e 4dcb d4f2 ddbf
000002f0: c550 6317 8b88 b8bf 4406 7db3 8e59 d6bf
00000300: 3c00 4186 8104 fd3f 71ea ef47 3f8f f9bf
00000310: 249b 0645 310b edbf 4dca d273 4160 debf
00000320: 0b81 757c 08bc d03f c9f8 d111 2728 ed3f
00000330: 57c0 d808 971d d63f 1fdf c31c 7a3c f1bf
00000340: bd08 efe3 fe7d e6bf 8999 ea0b 8519 d2bf
00000350: 3d17 b89f 9970 813f cad4 c98e 33ff ac3f
00000360: 211b a27e d12d b4bf faf1 3949 cdb1 9d3f
00000370: 20c7 d2cd 84e0 d2bf b033 3690 afc5 0bc0
00000380: bfc2 9233 9a56 14c0 fd0b 583a 696d fa3f
00000390: 72df 8726 8cee b93f f31f 420e 48b8 c8bf
000003a0: 7074 78e6 16da fa3f 9d32 6300 edd1 07c0
000003b0: 7fff cc75 9e22 f13f d6b7 a2d5 9558 c2bf
000003c0: 28ff 9b9d 6978 d7bf 657b ba81 f199 b93f
000003d0: 3b25 8519 c52c d63f c8fc 4b32 745c e43f
000003e0: a0e1 8ab9 ff6b f23f 31ef 1166 ff6b e1bf
000003f0: 3cab f767 ebad 1740 9b53 9f10 13e9 0b40
00000400: c625 8691 e034 00c0 6b87 f1e3 21d1 f53f
00000410: 6283 02b0 9d39 bf3f 8193 5c73 3e4d f6bf
00000420: 0a7e 1255 7d16 dfbf 8dd1 ed55 468a 04c0
00000430: aa05 dcf0 cd17 e33f 1583 b137 0d69 d8bf
00000440: ae20 d3cc 4ba3 f43f fbd8 0dc7 4c18 f23f
00000450: 3f6c 2d03 754c ebbf 2496 79ac 6b1c e53f
00000460: 4a94 3a8f 3cb5 c83f 1a1d 474d de0d 0840
00000470: a38d add7 38e1 fa3f 1aea 3d1a 7445 eabf
00000480: 710a 3bcc 3d64 d43f 3f96 0ea1 453f ddbf
00000490: a083 12b2 0814 fa3f 2add 1c7d 518f aa3f
000004a0: 640a 0106 1e6c f33f 47de c62e e3ee 823f
000004b0: 73fe 4c0d 0409 b7bf 6c7b 90b3 9a4a cb3f
000004c0: 9aa5 34b6 b4ec bd3f 0e1c 017e c8b5 0240
000004d0: a3e1 f5d4 f009 dcbf fd79 80f1 d2c8 d7bf
000004e0: 02c2 4cb9 2244 b33f 4f77 95c6 1490 e5bf
000004f0: 9ece c344 0024 ed3f caac d411 5803 be3f
00000500: 9989 552b 1b8e d83f 4d77 8e7d f25a f83f
00000510: 8212 6726 364b d2bf 549b 6494 04e5 01c0
00000520: 56cf d974 9b20 e6bf 49d8 dac4 3508 d33f
00000530: e6ee 37f4 abe2 00c0 1777 fa6a 87b2 02c0
00000540: f73a 4125 d3f9 9dbf 4437 c3c4 fcf3 04c0
00000550: faed 732d 5462 b73f 6e00 25e0 b32a 0840
00000560: 78dc 21d1 2712 0940 b240 4ff7 99a9 f4bf
00000570: af55 bb7e a825 d13f 8d0d 47b9 69e2 b33f
00000580: b903 1f5f b272 e2bf 371d 12d1 666b e8bf
00000590: ca38 5b7a 3a67 fdbf 944e 7f32 4b23 e43f
000005a0: 4844 97d3 98c0 cdbf e1b3 586c c3ca dbbf
000005b0: b360 a8d0 d8fa b1bf 60ce 6f1c 2973 cf3f
000005c0: 3090 b80e cc4a e73f 53e1 d255 64ca b93f
000005d0: 2d2b 157d 75e8 f6bf 09fe fa6f 72d8 cabf
000005e0: f062 6549 d536 eebf a8c2 ff7d a9a3 d73f
000005f0: b0a5 d0e3 5029 d8bf 171e f7c3 d083 1240
00000600: deaf 7c18 e022 0540 7235 e2d8 e6ea e93f
00000610: d3b5 8224 0862 bc3f c6ea 95bb c354 bf3f
00000620: 79bf 2b40 1b1e 02c0 3699 4d4e a07b f7bf
00000630: 4ac2 054f 33d8 f4bf 8e9a 22c5 f4e7 c1bf
00000640: 53bf bd82 b04b d8bf 5843 f07a 00ce 1540
00000650: d3ee fa65 725e fb3f 5973 96b8 e1ca ed3f
00000660: 7ad6 ee32 5941 b93f 3e79 b832 b0c5 cdbf
00000670: 8f54 2b73 fb8c 2340 5829 2121 db1a 0f40
00000680: ae36 7e9b c9ca 0840 49e7 e9f7 4ba3 fd3f
00000690: 534e f8c9 c090 dfbf 5062 829c 53ef 0a40
000006a0: 93b7 498d bbe1 0040 a8ae a310 efe9 0240
000006b0: 8ade 12e6 08fa 983f f90d 5746 d927 cf3f
000006c0: da19 6cdc 71d7 f3bf 0625 27c6 1013 f0bf
000006d0: 450e eb45 6a37 c33f fbcd 49c4 ae09 d8bf
000006e0: 2640 c27b c8e4 db3f 28ef dd9a 7353 f73f
000006f0: 12e0 1c4f 16fe 1040 e70e 1637 076f f5bf
00000700: f732 62a7 a04e c8bf 25a7 7741 6c02 d23f
00000710: 3ae9 8bad 3f43 e63f 6467 d8e7 1014 d0bf
00000720: ff23 474d 82ec e8bf efff 6334 510e e9bf
00000730: 5e41 1b74 09b7 b43f 3f8e 8689 df06 dfbf
00000740: fdb7 459b 7467 e6bf 108a 7713 01f4 febf
00000750: 844c 9b59 bbda e13f b292 4112 c961 d0bf
00000760: c713 4b98 3158 ccbf 372b 5a3a a3ec e63f
00000770: 0251 a6ea e761 c13f edcf 7b05 6ebb ea3f
00000780: 1229 4e95 8092 7c3f 4c28 c142 868b 0440
00000790: 6e2e efa1 93a4 923f f45d 7e3d b786 10c0
000007a0: bcb9 5740 5c72 0bc0 2c5e a5ad ffcf cebf
000007b0: 1fd1 0f68 bd15 f83f b5b2 240a 8039 ebbf
000007c0: 924c 80bc 8a23 edbf 250a 5edf 3e24 d9bf
000007d0: 809f 8cf9 e8b0 ba3f b500 99c9 c03f fcbf
000007e0: 4667 d636 9364 f73f 663c 6d33 2ede e1bf
000007f0: 2f15 5f04 ec86 c83f ec75 5223 8a29 b83f

0.layers.0.bias f8 [64]
0.40777713179786007 0.11356055738051048 1.1921116752605636 0.8403873829978386 1.4154102742794423 -1.3752859086898102 0.04480946123933452 -1.0781874174823862
1.471745175648564 1.9852533318101433 -0.7221872175907595 0.12806790738221935 0.017209000011791115 0.689697329530307 0.2514668624744749 -0.1123381560474895
0.7590064162352321 0.6265208135935112 0.02149099304821277 -0.728205975054514 -0.8076336618525172 0.4190115370784039 -1.4568496582982073 -0.6849596409260976
1.1489845046012974 -2.2458631037991403 -2.0825722547033445 0.643091012625372 0.11893906580955169 -0.4486702915134104 1.3928789364981935 -1.000665791922926
-2.932557899560121 -0.5920289377608023 2.461126745629068 -1.768350080261703 0.6475672514542493 -0.6706576543288103 -0.9376389382429625 -1.5415641859250944
-0.9404327242945667 1.6776983285975333 1.1767708186422519 0.04415938340402462 1.391483944995473 -0.9883571353997413 -1.5130896666381146 0.6862052779707847
4.92390701464923 -0.37037899401799257 -0.3671068001293078 -0.4991045654767004 0.048940556153304615 -1.027498118969257 0.8535772777363395 0.3911083914199521
0.5965265955748387 0.1416041914050578 0.8943705707587903 0.8804983674526343 -0.7419674131966744 2.195116006560221 -1.974223438319733 -0.9199315969380648
00000000: 3139 4841 0519 da3f 4d98 1000 4e12 bd3f
00000010: 44c8 26b1 e312 f33f b84b be14 74e4 ea3f
00000020: d43d 673e 85a5 f63f db8e 07cc 2b01 f6bf
00000030: 740d 2605 44f1 a63f 90ba 1073 4140 f1bf
00000040: 3e4d 57ab 448c f73f c564 66ff 98c3 ff3f
00000050: 9087 245e 281c e7bf 52d8 ef78 8764 c03f
00000060: 5572 fd70 3c9f 913f 1a14 4f22 0012 e63f
00000070: 24c2 9677 0818 d03f 2621 5182 31c2 bcbf
00000080: 4ee7 e5d2 c749 e83f dab7 9460 750c e43f
00000090: 3dda 3321 bc01 963f bc8c f39d 764d e7bf
000000a0: e3c4 998c 22d8 e9bf fa7f 19c4 15d1 da3f
000000b0: f145 5996 414f f7bf 9470 1b7b 30eb e5bf
000000c0: 2df9 6d93 3d62 f23f 05e2 3013 87f7 01c0
000000d0: 1210 6ca4 1ba9 00c0 d97a 729a 3394 e43f
000000e0: be6a de65 ca72 be3f 1c29 2f99 03b7 dcbf
000000f0: 85c0 786c 3b49 f63f fc8e 2822 ba02 f0bf
00000100: bbe5 81ea e075 07c0 08fc beab e6f1 e2bf
00000110: 544d 1e38 63b0 0340 d8a5 2974 294b fcbf
00000120: 8b9c def4 deb8 e43f 22f0 840a 0776 e5bf
00000130: c3b5 e65f 2301 eebf f5ba 3335 3faa f8bf
00000140: fedd 5d5e 0618 eebf 9315 de33 dad7 fa3f
00000150: 374a 4fa3 0dd4 f23f 8549 1007 0f9c a63f
00000160: 48a2 4aab 8443 f63f 9cec a924 9fa0 efbf
00000170: 1905 a282 9d35 f8bf 7b44 67c5 64f5 e53f
00000180: 8fda 31ae 14b2 1340 aab0 9b18 4ab4 d7bf
00000190: 1774 2c85 ad7e d7bf 156e 8046 54f1 dfbf
000001a0: f0c3 4090 bc0e a93f a7ca 1ade a170 f0bf
000001b0: aa8f 8f4b 8150 eb3f 49c0 957d eb07 d93f
000001c0: 5405 66f1 be16 e33f f6d6 870d 1620 c23f
000001d0: 543e fd07 af9e ec3f 9c7e 8ce9 0a2d ec3f
000001e0: f313 cc71 32be e7bf 73d1 18fb 988f 0140
000001f0: 6147 e950 6b96 ffbf 4cfe 6c63 1470 edbf

0.layers.1.weight f8 [64, 64]
-0.13931183148746876 0.09851675372751471 0.06649329023748073 -0.06043848651824452 0.0269708129427099 0.08740579091964325 0.15970252132380167 -0.5700240805436119
-0.8187604936789843 -0.251461485543348 -0.08290676807274737 -0.005042187474088639 -0.05671317096731645 0.012277450847792986 0.08269137222518104 -0.05283840146439544
-0.2920492009222132 0.5115120831058272 -0.3063333908238628 -0.22871950741871963 -0.5449669748413737 -0.11203251375882614 0.04953554637586397 -0.11754359842210854
-0.8785141889194575 1.0072759121199903 -0.23183234649458354 0.017960293255814917 -0.2998617859831962 -0.01962911486634015 -0.12629485189341985 -0.13601513756173253
-0.9081091525205763 0.17080346451600903 0.23808883124126215 -0.3605784143630414 -0.5458321886425769 -0.18309698324596554 -0.16430710241674124 0.898384774831608
-0.13004649579980834 -1.0891400399115336 0.08713737989202947 0.10517404100754262 -0.10388447980152664 -0.69952782241869 -0.5018455783829902 -0.4628528785164553
1.8839948321552877 0.008836039073929701 -0.14819820837430195 0.030253394392232513 0.03234347174593228 -0.721482310616396 -0.21243694703737293 -0.054299958732300445
-0.030227268814204445 0.07566756674538497 -0.005419820136457839 0.0680825836243662 -0.12495278692479896 -0.6571811585549678 -0.8870471643924732 -0.31863406669986616
-0.006967956922446484 0.5658950537789504 0.3608720721406899 0.1644253351293581 0.19508076379566675 0.2178012160138324 0.34554582388633504 -0.6401503836104834
-0.7706370781711259 -0.027718579630953494 0.22834582991860095 0.2799067455219681 0.11488736326496957 1.145377587748182 0.5427415177643096 0.5247559280162261
0.15172903593379267 0.5146509217047922 0.0726671366860405 0.16343059054642883 -0.10788262310821994 0.10516255423669711 0.3741056492196173 0.3580308623778812
-0.6808751117912628 1.2590447155924245 0.10654880166781887 0.08128568822539343 0.41881255168687703 0.07972507843944072 0.1540352006238073 0.29485246746278376
-0.3206842153518516 0.17166893358170202 0.8105999716451413 0.0026546688352160532 -0.12560070512746627 0.011421368570176876 0.17036044976492373 0.8579122031515917
0.2902533706062103 -1.119303145551846 0.24007340564796914 0.22063482613324178 0.3954074259409733 -0.1882642797124496 -0.40051822086904515 -0.5046806024963751
2.7202816875978946 0.30337305620763305 0.2203781593811279 0.25235014591744637 0.36894279398998947 -0.33818859235314824 -0.04838104096454924 0.42597724950464794
0.8507881062411197 0.2791242546620068 0.3559684563620851 0.20367786512087263 0.06269653175191876 -0.23420179784517675 -1.491487902709914 0.3188419581918065
-0.011246505236672932 -0.21155423291277578 0.058484250907318354 0.03533046631386539 0.14300957582421392 0.142363783887841 0.06438713802168079 0.4952697686144201
0.7586985018747362 0.26905319098123315 0.081716643735018 0.1054267791384709 -0.017065876701879035 -0.09063346321267854 -0.08610050063282206 -0.07609784463577575
0.21943846854841342 -0.3964544346245878 0.20107619795917903 0.25505309733336123 0.45334436768369196 0.17544529255325092 -0.030804324329143623 -0.015164627218941318
0.812599506738235 -0.8580498594687156 0.13604363970213063 0.12264683216174325 0.2354013967394532 -0.03761299801892433 -0.00018294014220447647 0.13832330577578955
0.9401398736591576 -0.07985841665599482 -0.3271163172719671 0.16196122045197767 0.42093840930955123 0.1817341738220748 -0.0952063044160466 -0.727109901308294
0.13345147789031583 1.0005405472081006 0.0122561119935555 -0.031059250132178414 0.22354207809703844 0.34129395953851444 0.551310463234496 0.30908290705717995
-1.4430196642360544 0.22355721952290697 -0.02893536500746614 0.15477812774894212 -0.08365402055145356 0.7705185211054713 0.23045418664432962 0.09392104045003431
-0.03772159323122971 -0.023851661095518777 0.026482262651977447 0.1733588105929131 -0.006768213928853208 0.9743193990335799 0.7798827662849075 0.09010011982395798
-0.14510636764069756 0.03721205774376012 0.025471987178639383 0.15496778961710544 -0.03159996625212986 -0.03710016289579975 0.106859902200694 -0.5154558438028293
-0.5937251748854439 -0.1906824403442443 0.015094113116726551 0.09703738621989035 0.02105137870869774 0.08770800760743025 0.09419390361820854 0.1442123425502241
-0.19073427956902136 0.433210207835106 -0.26038286181792525 -0.25555590662774086 -0.3714945097678462 -0.0441288837819647 0.048746826721666435 -0.08093904921476401
-0.6471767950756564 0.6195421074029035 -0.1238975781252192 -0.01654582700958604 -0.20643145800015625 -0.15390323288092153 0.11656429947615142 -0.13078203390753107
-0.6373760977793225 0.14194703987799975 0.29822483792110127 -0.1573565840741246 -0.40721956906554146 -0.06622349520226577 -0.014115825925386155 0.5085375905605248
-0.10503946607799768 -0.8574762930806761 0.11411346813831603 0.026866050341205008 -0.2352473442249874 -0.35229716686785245 -0.22928049057456762 -0.29144250428281077
1.7744745847688375 -0.20994328414810015 -0.11424960634714074 -0.041441181722941145 0.2474282329641064 -0.36550927346811174 -0.18670087078536554 0.11636384645396516
0.003181613503666833 0.1167994468996456 0.04299579203616957 -0.046406674391012495 0.045018607100719955 -0.3041306947456394 -0.7981949721675483 -0.1500085109848432
00000000: 0d9f 1758 f8d4 c1bf a325 5edb 6438 b93f
00000010: c731 f94a b405 b13f 59fc 0716 cbf1 aebf
00000020: ea52 249e 3c9e 9b3f 0d1b 7bd5 3960 b63f
00000030: 0f55 16d9 2171 c43f c8c0 fb23 a33d e2bf
00000040: 2a75 f334 4933 eabf 362f 27ea f117 d0bf
00000050: 5350 7dc1 6039 b5bf c7fd d2e4 1da7 74bf
00000060: b339 1d3d 8209 adbf 09c6 f48e eb24 893f
00000070: 0557 5e03 432b b53f ff65 868c a20d abbf
00000080: 6a2a b221 efb0 d2bf fb58 8e96 4e5e e03f
00000090: c4b8 d05d f79a d3bf 690a 294a ae46 cdbf
000000a0: 0a00 cb94 5e70 e1bf d6cd aeae 29ae bcbf
000000b0: ddff 581f b95c a93f b4bd 1357 5617 bebf
000000c0: a564 cfc9 c91c ecbf b1a9 c958 cd1d f03f
000000d0: d1b1 2cad aeac cdbf 3924 a4e0 2e64 923f
000000e0: f78c 077d ef30 d3bf 8af7 9999 a719 94bf
000000f0: 0d88 4401 6e2a c0bf ab56 cbab f168 c1bf
00000100: d9c5 e8ec 3a0f edbf 80e3 114f e3dc c53f
00000110: c9ae dcdf b179 ce3f 964c 557c b713 d7bf
00000120: f75d ea10 7577 e1bf c3d2 84d1 b86f c7bf
00000130: ceb1 b0df 0308 c5bf d908 646d 91bf ec3f
00000140: bdb4 3513 5da5 c0bf 5ef2 421b 1e6d f1bf
00000150: 9438 e5a4 a24e b63f a3fb 839a afec ba3f
00000160: 533d 4f5b 2c98 babf 96c5 fd2b 8862 e6bf
00000170: 3b82 5975 1e0f e0bf d69b 05ae 619f ddbf
00000180: 1e0a dfc3 d724 fe3f 7926 ca16 a118 823f
00000190: cb8e 25ad 28f8 c2bf c0cf 07ee befa 9e3f
000001a0: 1998 c6d2 528f a03f 8bad 1712 6216 e7bf
000001b0: b469 fe45 2231 cbbf b3d7 db45 34cd abbf
000001c0: bd83 04ac e5f3 9ebf 3e11 8a1c f35e b33f
000001d0: a2d6 c7e3 1733 76bf c405 1836 dc6d b13f
000001e0: 59d5 62e5 e7fc bfbf b04f f1c7 a007 e5bf
000001f0: 1b68 22bc b062 ecbf 9c83 f723 8064 d4bf
00000200: a727 a1b1 6e8a 7cbf 305c 9ef1 cf1b e23f
00000210: b793 f82c 8718 d73f f1d8 81ae e30b c53f
00000220: 2461 4a0e 68f8 c83f 047b e705 e9e0 cb3f
00000230: a61d 373b 6c1d d63f ca1f 44a8 1c7c e4bf
00000240: 358f fa16 0fa9 e8bf 65ac 0664 4262 9cbf
00000250: cfd4 d6a7 6f3a cd3f df95 7cfb fde9 d13f
00000260: fc5b f21b 4269 bd3f 6e32 0f73 7753 f23f
00000270: e454 9f75 235e e13f 3dc7 a6f1 ccca e03f
00000280: 4a39 9867 db6b c33f c181 b235 0578 e03f
00000290: 4e7d 8f3f 509a b23f 680c c828 4beb c43f
000002a0: b076 0e12 329e bbbf 6bdf 35e3 eeeb ba3f
000002b0: 286a 29d2 58f1 d73f 8cc9 3747 fae9 d63f
000002c0: e0b8 399a bac9 e5bf c3bc 5a12 0c25 f43f
000002d0: 9f5d 9742 c846 bb3f 4398 8f8c 23cf b43f
000002e0: 8890 2929 d3cd da3f cd84 91dc dc68 b43f
000002f0: b157 8eea 6cb7 c33f a171 39e2 dcde d23f
00000300: 5be5 5116 1786 d4bf 5d7e bc63 3ff9 c53f
00000310: 5257 0b5a 6ff0 e93f 2cde 867a 3ebf 653f
00000320: c541 7014 af13 c0bf d632 e023 1664 873f
00000330: 65d7 2208 5fce c53f 3b03 ec4a 0474 eb3f
00000340: 1dad 93df 8293 d23f 1e48 476a aae8 f1bf
00000350: fedc f2b0 b9ba ce3f efea 4c11 c33d cc3f
00000360: f9c4 c0f2 5a4e d93f 175b 2f3e 0b19 c8bf
00000370: f76a 052d 17a2 d9bf 61b8 54ef 5726 e0bf
00000380: 0b20 a10b 23c3 0540 038f b9d2 766a d33f
00000390: 1bb6 a5fd 5935 cc3f f7cc f639 8126 d03f
000003a0: 290a 923c c29c d73f fc5e 02c4 e1a4 d5bf
000003b0: 95db 6059 66c5 a8bf 8599 dd14 3643 db3f
000003c0: 4934 84fa a739 eb3f e5cb 52fa 2bdd d13f
000003d0: 84e5 9eeb 2fc8 d63f e17e cec4 1d12 ca3f
000003e0: 3d76 7241 e10c b03f 7268 3413 53fa cdbf
000003f0: a34c 486b 22dd f7bf acb0 c119 e867 d43f
00000400: 4686 7c61 6808 87bf 216a d887 3514 cbbf
00000410: 31bb f4d1 a5f1 ad3f c1af bdba d516 a23f
00000420: b404 9745 234e c23f 746f f7f9 f938 c23f
00000430: 650e 16ec ac7b b03f f95e b9f8 7fb2 df3f
00000440: 1f70 a214 4247 e83f 9286 09e0 2a38 d13f
00000450: 2a7b 61c8 61eb b43f 92b8 85d8 3ffd ba3f
00000460: 50a1 3f99 b779 91bf caf2 6b30 c133 b7bf
00000470: 691f 63b2 ae0a b6bf 19ba 01fa 257b b3bf
00000480: 582b f34a 8f16 cc3f 0946 c46b 825f d9bf
00000490: 968d 1e67 ddbc c93f 2294 f239 ca52 d03f
000004a0: 91be 4118 9803 dd3f 446e e0c8 fd74 c63f
000004b0: c8b4 4636 2b8b 9fbf 4dea b0cf a10e 8fbf
000004c0: 68f7 45ae d000 ea3f 4c2d 98fa 2475 ebbf
000004d0: 0cbb acc3 e069 c13f 6bba 1765 c865 bf3f
000004e0: bede 360a a221 ce3f 5aa5 cac8 0242 a3bf
000004f0: f2e5 14db 73fa 27bf a872 4afd 93b4 c13f
00000500: 4f03 6137 a015 ee3f 010c d9e7 9971 b4bf
00000510: a0f2 2a47 79ef d4bf ebde 8730 25bb c43f
00000520: a158 67a7 a7f0 da3f 68d1 90be 1043 c73f
00000530: 5806 d7bb 705f b8bf eef0 d6fb 7b44 e7bf
00000540: a325 9222 f014 c13f b24a 09ce 3602 f03f
00000550: cfe9 8181 bb19 893f 6f55 39fe fecd 9fbf
00000560: c573 5add 069d cc3f bb93 a29e c2d7 d53f
00000570: d71c 31d7 55a4 e13f 650b 64ac 03c8 d33f
00000580: 610f 96c9 9b16 f7bf a05a 51e1 859d cc3f
00000590: 739b 9e79 3ba1 9dbf 36ae 680a c5cf c33f
000005a0: 2189 7292 596a b5bf 7487 2375 16a8 e83f
000005b0: ed8c 6ed5 857f cd3f fda1 2395 350b b83f
000005c0: 71f2 8fa2 3e50 a3bf 6e2e 71e1 916c 98bf
000005d0: 4fab 0e90 2a1e 9b3f 9f29 fc1a 9f30 c63f
000005e0: 1ccb a097 fcb8 7bbf a8a4 56e0 9f2d ef3f
000005f0: ca0b fdb3 ccf4 e83f e373 022c cd10 b73f
00000600: 9ea4 ba6f d892 c2bf ef78 0d76 750d a33f
00000610: 98e6 951f 5415 9a3f 4c60 2b0a fcd5 c33f
00000620: 8917 37eb de2d a0bf 8fa1 a0e4 cafe a2bf
00000630: 52ab 34a9 2b5b bb3f 9d49 f540 9d7e e0bf
00000640: 4f3c 1ef0 cbff e2bf 9c99 993e 4868 c8bf
00000650: e874 9691 a9e9 8e3f 91c2 4d30 71d7 b83f
00000660: 95b7 5b1c 7e8e 953f 786f 4530 0874 b63f
00000670: 06d5 8577 171d b83f bd64 77cf 8c75 c23f
00000680: 05cf 7c1a fb69 c8bf 3a7d bc4e b7b9 db3f
00000690: 9e99 fce0 1caa d0bf 7c02 5129 075b d0bf
000006a0: 452c 86e8 90c6 d7bf 8517 4ea1 0f98 a6bf
000006b0: e34e 1b15 58f5 a83f 57c4 58e9 6bb8 b4bf
000006c0: ac8f 321c acb5 e4bf e04a 39f8 49d3 e33f
000006d0: c2f6 196e c0b7 bfbf 18d7 90a7 63f1 90bf
000006e0: 5ff6 7c94 586c cabf 0772 fce3 19b3 c3bf
000006f0: a797 216e 28d7 bd3f 44c3 4437 77bd c0bf
00000700: 73db e68e 6265 e4bf 451f 0513 522b c23f
00000710: 4977 6ea1 1d16 d33f 4d4e 34b3 4224 c4bf
00000720: aa5f dbaa e20f dabf ffdb 1ee2 05f4 b0bf
00000730: f0fd a415 c2e8 8cbf 9bcf 07a0 f045 e03f
00000740: 2324 98cf dde3 babf de0e 7c1f 7270 ebbf
00000750: b1ec af4d 8a36 bd3f f747 5a1e c682 9b3f
00000760: 0066 f5c0 951c cebf b7ef 8a6a 098c d6bf
00000770: 1a76 5028 1059 cdbf dbc6 2376 fea6 d2bf
00000780: 38a5 5276 3f64 fc3f 9028 b7e9 6bdf cabf
00000790: 0e83 d752 763f bdbf d84d 6a50 c737 a5bf
000007a0: 4f0d 5874 baab cf3f 6389 fb01 8164 d7bf
000007b0: fb34 146b d0e5 c7bf 32e0 f462 05ca bd3f
000007c0: c6dd 4bbe 5310 6a3f 3ff7 9f8c 91e6 bd3f
000007d0: 146a 5261 8b03 a63f 7aaa a699 9dc2 a7bf
000007e0: a50a 6bca ad0c a73f 1f1b e996 e076 d3bf
000007f0: ec51 a92e d08a e9bf 7699 6698 7a33 c3bf

0.layers.1.bias f8 [64]
-4.762946673743277 1.6144063207957893 3.7627183530217554 -4.756442630678118 2.914104073917868 -1.082901588193424 5.206096240105576 -1.9214494763830883
2.084207356988425 -5.211927592259494 -5.7151106008446435 4.314739549113472 0.6409956242378356 -0.13820175561429676 -0.5018320888273876 -4.209244079721084
4.994292712164803 1.1437702739232807 -3.909404077138652 -3.7817884566767805 1.6832537876156022 0.9557038138120004 -3.4761171859501045 0.024614320611481045
1.9420669981920173 -2.968620326499144 -4.159464132939188 -5.889060080980118 4.514129638618909 -0.03987446842725614 -1.0845539344851056 3.6330205390545536
6.536421694634004 2.8530494035329745 -2.880396318555084 -0.021621195616111612 1.8498713013969759 -2.628408212255431 -3.3686826140583053 3.6842339893907363
-5.485483623206223 1.6378468733912999 5.5121551334302215 -3.1501569291291505 2.258365593590612 -0.6997842507426907 -5.1844844266563985 2.5422961311797194
1.0725686242219659 -1.3429796342980926 -4.877510933814983 -2.292909726943403 0.20665177648158234 4.211711438933439 -1.8620244334178404 -1.084780958020566
0.895264569060289 -5.47964093435412 -4.011059902940003 -2.753099683392131 -5.102267060715296 -0.4126650536419656 -3.2562504003498 -5.234035762924275
00000000: 0547 91e4 410d 13c0 aa60 e4b8 9bd4 f93f
00000010: a44c 7214 0c1a 0e40 3a40 a0e5 9806 13c0
00000020: ddf0 f4cb 1550 0740 473c a19d 9053 f1bf
00000030: fb53 8ce4 0ad3 1440 ffb4 5fce 41be febf
00000040: 77c8 22e8 74ac 0040 8a7f f78b 03d9 14c0
00000050: 459a 0ef4 45dc 16c0 f4cc 9815 4b42 1140
00000060: 2661 5f41 0983 e43f fa7c 4e5a 98b0 c1bf
00000070: 991a 332b 020f e0bf 7b22 7d14 44d6 10c0
00000080: 8c98 65de 27fa 1340 0133 0a0f e24c f23f
00000090: cd46 11a5 7546 0fc0 6489 6e4e 1a41 0ec0
000000a0: 92d5 0a86 9bee fa3f 3e85 1f2a 2095 ee3f
000000b0: 06c1 f586 16cf 0bc0 fd84 2818 7f34 993f
000000c0: 7b02 3ed8 b412 ff3f f56f 8403 bcbf 07c0
000000d0: 6c6f cf90 4aa3 10c0 73f4 0fc4 658e 17c0
000000e0: 0e17 ffff 770e 1240 6c4f ae23 6d6a a4bf
000000f0: 57c9 f539 555a f1bf 1b7c 8712 6d10 0d40
00000100: 9445 8dba 4b25 1a40 185f d090 0bd3 0640
00000110: fcb3 9d39 0d0b 07c0 3756 49e0 dd23 96bf
00000120: 8bf1 54a6 1299 fd3f 3366 81e2 fa06 05c0
00000130: aadf cfde 0ff3 0ac0 66f5 79ab 4f79 0d40
00000140: 42a8 719e 22f1 15c0 ce24 51ec 9e34 fa3f
00000150: ca3e 3265 720c 1640 1a05 df79 8533 09c0
00000160: 0311 f7fa 2111 0240 5743 e6f0 a164 e6bf
00000170: 3271 4c7c e9bc 14c0 5350 a15a 9f56 0440
00000180: 23fc bbb7 3d29 f13f cf11 8836 d87c f5bf
00000190: 9978 ea39 9282 13c0 b837 0f0e e157 02c0
000001a0: 8a08 d3be 9073 ca3f 05a2 29e2 cad8 1040
000001b0: f11e de21 daca fdbf 9f59 2047 435b f1bf
000001c0: 0a35 ace1 01a6 ec3f cd7e 3bfe 26eb 15c0
000001d0: 6eb2 8549 530b 10c0 9460 7620 5906 06c0
000001e0: c5eb 44b2 b868 14c0 7809 66af 1a69 dabf
000001f0: e2b6 8802 cd0c 0ac0 ac6a 2f12 a7ef 14c0

0.layers.2.weight f8 [64, 64]
-0.2093727761377423 0.12168500470764355 0.002755073966342283 -0.15092139280355052 -0.29889226319585 -0.1400303791248469 0.17839853831791577 -0.13263184136214828
-0.005042670948588668 -0.555409830484004 -0.04500395608865839 -0.09801482847815425 0.07448759544140467 -0.5947782371992408 -0.10044526476562632 -0.3503353634769768
-0.3087350824346055 -0.1339124480880321 -0.13505740012116163 -0.2286862889067532 -0.4773709448363591 -0.2960240918892511 0.028633930946703485 -0.18070647389193975
-0.5336094594878311 0.04413478235983329 -0.5765352379096775 0.15849308805538123 -0.3458146084524343 0.012320086611135412 -0.5229268187462273 -0.11933224939728689
-1.434299814312332 0.2715632126687645 -0.2718713621237447 -0.2662003818971565 -0.37583066931948717 -0.15200345757315903 -0.3217461740417546 -0.023935577527861757
-0.128369271231166 -0.49120578932617304 0.017873151133787527 0.15650430212039568 -0.05954336641121048 -0.35436312442469603 -0.21791400631378804 0.02469758099835153
1.1338974477746284 -0.04446676966270565 -0.27520471177777267 -0.4631322096973903 -0.2647426863706665 -0.2610215514816324 -0.0054479511118311124 -0.07530568128535944
0.19051645177608564 0.05914664539134479 -0.09181789635201902 0.25663363460845134 -0.15964414313937222 -0.9773833684104948 -0.3319782710790825 -0.3530626652159783
-0.14529131487480396 0.10742992476023702 -0.04099456285020965 -0.1095432331800346 -0.36111570832899814 -0.24907569123360976 0.21128025046277638 -0.2468302767307708
-0.07255292714117936 -0.4822586634325803 -0.027686200756968402 -0.010628140275765054 -0.010161350443466879 -0.11613200446090007 -0.09709210578536004 -0.19358904211696673
-0.2432475059142392 0.0521086690161147 -0.0344644932076823 -0.20156689197524477 -0.39638456619049456 -0.21432362970803795 -0.16883357820359163 -0.15202033268931445
-0.39610925389036117 0.004277094276480811 -0.42992291348987827 0.1213535069689932 -0.4183208869139847 -0.1438945356258393 -0.33631059498796606 0.0005691102820766071
-1.2056873695060537 0.15202085009072933 -0.35773283776232095 0.05424911778253138 -0.1819824512249736 -0.14641051446789025 -0.1936571152965722 -0.16510434703790453
0.013372508403408874 -0.23277710312535232 -0.03590176115684157 0.04788288064102564 -0.015178991636807648 -0.18377518589767233 -0.27030551604590564 0.028124143918198553
0.9501813678249283 -0.02765115823391054 -0.2004135422046658 -0.43304288692658766 -0.064008249249696 -0.18793227910200672 -0.007604439802737439 -0.06411804025263074
0.31296332458482284 0.09306909395816679 -0.018820251230833987 0.08013502674223932 -0.24729348537629312 -0.6278918403737693 -0.40536545194877727 -0.10902648993458801
0.042171844442449646 -0.1108445750634422 0.1387999732678689 0.017121306756353916 0.2508660387774192 0.18776768302871616 -0.0026199422696750944 0.042688616345670845
0.012115357618644136 0.43915927236134006 0.11405865726922391 0.1077295453471036 -0.1392604919725859 0.38900305255858747 0.12874982106257646 0.19404937063956854
0.1872004038947737 -0.00124219185016368 0.001115252572968189 0.16357612250161233 0.40856532356020137 0.21460337261464543 -0.004815687279619095 0.11769815408327919
0.4691098634401955 -0.12845176830746172 0.331113183656191 -0.04888324092906982 0.18533928606753647 0.020525589515715387 0.22949853615494709 0.17070341998853844
1.1663386434037626 -0.21913129886654642 0.3366778496648424 0.07992131998062141 0.2906673311963294 0.07820244766743581 0.09550007835389135 0.05755270928440374
0.166316445807588 0.3397551433944342 0.1231389188779543 -0.1601544113263865 0.15075588532762482 0.14752246934523028 0.29396374805481124 -0.1137246876954597
-0.8777086030267465 0.14821399287738357 0.00829596033516687 0.4600575366281858 0.17109637579486237 0.2589139446590149 0.039320652954985845 0.054086410385251846
-0.20726111888861842 -0.07732610124847088 0.13577487844768155 -0.12405570959654887 0.06357959384352779 1.0052343814641913 0.2617912079366626 0.08229924463222175
-0.33198245253499914 0.18178695305467013 -0.0580677106659835 0.015722368920137942 -0.32758203341900927 -0.2676094342636623 0.008399316400303492 -0.2486800219451826
0.0017874110233938166 -0.5585311129416126 -0.049008317689122324 -0.09274054557009406 -0.06922413203878203 -0.4469971862875784 -0.06209452717756406 -0.13939598714487558
-0.1378232608954345 -0.08588516581057921 -0.20242643092965434 -0.17835856641908446 -0.4318507007061255 -0.16036027148189583 -0.010645719165486825 -0.10183667772969067
-0.47662324435481923 -0.09992802523206559 -0.5117770279910981 0.088347740959082 -0.18679261657931917 -0.27328690303929415 -0.24235116111674754 -0.177875889558657
-1.3342991648890186 0.14299208905204858 -0.17852131404647584 -0.28801919555465944 -0.3313088130691288 -0.06287359100599427 -0.2372504505944372 -0.0725193572304271
-0.179283030372406 -0.36349709376112305 -0.044231780708089086 -0.013975443447211877 -0.13040146492753585 -0.20311903448184918 -0.14146439612617873 -0.020877361653014116
1.0194939765792785 -0.13496192555579212 -0.2249679521384542 -0.4367958652022275 -0.15619393244959295 -0.15999322509499692 -0.09888053927798349 0.16566478794871506
0.20404379485854038 0.0030660501968816094 -0.026774467290571365 0.13801739744167102 -0.0878035582461375 -0.8106238316986639 -0.34213125623428076 -0.05606364343663153
00000000: 3498 1725 bacc cabf 0908 a29b bf26 bf3f
00000010: 850a ac12 cf91 663f 93d3 2d67 6451 c3bf
00000020: c907 dd03 0d21 d3bf 4ed3 64f5 83ec c1bf
00000030: 3565 dd67 c3d5 c63f 0e83 8786 14fa c0bf
00000040: f357 f0ac 9fa7 74bf 4ec8 39d6 eac5 e1bf
00000050: 03cd 2e2f c20a a7bf 6933 d6f2 7f17 b9bf
00000060: 25e6 607a 9e11 b33f ab95 a45e 6c08 e3bf
00000070: 58d8 34e7 c7b6 b9bf 5004 3104 e56b d6bf
00000080: c3ce 8bca 50c2 d3bf e25e 8808 0b24 c1bf
00000090: dc34 4d96 8f49 c1bf 5af5 f2a1 9745 cdbf
000000a0: 827f 08dd 3e8d debf 0384 5f08 0ff2 d2bf
000000b0: 9557 e393 3652 9d3f 414b c5c5 6321 c7bf
000000c0: 60c4 2a25 5413 e1bf e5ff b38d d598 a63f
000000d0: 6009 fa06 fa72 e2bf 3182 eb62 8049 c43f
000000e0: 6410 7298 d321 d6bf d734 a108 463b 893f
000000f0: 78ec 1606 d1bb e0bf 85fb 84ec 8e8c bebf
00000100: de15 b25c e4f2 f6bf da60 4dab 4a61 d13f
00000110: d796 4224 5766 d1bf 7795 9b53 6d09 d1bf
00000120: 3ae7 6314 9c0d d8bf 10ec 936b d974 c3bf
00000130: 63d6 c743 7d97 d4bf f5ab c56a 9182 98bf
00000140: 2be6 df7e 676e c0bf fdc0 3068 ea6f dfbf
00000150: 8463 62de 564d 923f ec2b a53d 5508 c43f
00000160: 0e1b dcd6 777c aebf 27ff 93ab e2ad d6bf
00000170: 9ea1 3a2d 9be4 cbbf 2682 b69a 524a 993f
00000180: bd5b 73a6 7124 f23f 5b90 eb32 59c4 a6bf
00000190: d799 3239 f49c d1bf e5f7 9747 f5a3 ddbf
000001a0: f74c f44e 8bf1 d0bf f28b cabc 93b4 d0bf
000001b0: 4737 b03d 9750 76bf a2d8 52ae 3b47 b3bf
000001c0: 4337 ddd4 d762 c83f 6874 3f17 7848 ae3f
000001d0: fbf9 04ae 6081 b7bf 369a ec7a af6c d03f
000001e0: b709 e422 386f c4bf d146 5f7c b946 efbf
000001f0: 261b 51ca 213f d5bf 68a3 2226 9498 d6bf
00000200: 04db e3e2 e798 c2bf 3efb 740d 8780 bb3f
00000210: 92cc 8245 3dfd a4bf 33a0 017c 060b bcbf
00000220: 3313 560f 851c d7bf 6dd9 0956 b6e1 cfbf
00000230: c69f 0333 3b0b cb3f 3e53 1c6f 2298 cfbf
00000240: 62e9 4c21 d492 b2bf 68f5 e970 53dd debf
00000250: e9e8 347b c559 9cbf 6eb4 36d7 34c4 85bf
00000260: 3bfd b35e 79cf 84bf a5b1 2db9 d3ba bdbf
00000270: c442 0c3b 07db b8bf b5cf 6096 86c7 c8bf
00000280: d11b 5ef9 bb22 cfbf 564c 86ca fcad aa3f
00000290: e081 667e 54a5 a1bf abb9 7ea4 f1cc c9bf
000002a0: 3c59 1b5f 5d5e d9bf 9f92 2dea f46e cbbf
000002b0: 56f0 6cb4 569c c5bf 7b23 9dfa 6675 c3bf
000002c0: 2f88 c6a0 da59 d9bf 765b a1c0 db84 713f
000002d0: 375d 4f65 db83 dbbf cbcd afff 0511 bf3f
000002e0: b4df 21f8 c4c5 dabf e304 4bda 226b c2bf
000002f0: 2762 b1df 1c86 d5bf 68a7 5006 0ba6 423f
00000300: 09a9 d3d6 7e4a f3bf 1593 b951 6b75 c33f
00000310: 8b3e b945 18e5 d6bf 4ff7 6c55 8ac6 ab3f
00000320: c584 3a72 334b c7bf 490e b769 94bd c2bf
00000330: be11 6ba0 c1c9 c8bf 1f45 7aa5 2322 c5bf
00000340: 84a4 10b2 0b63 8b3f 422b 97de a3cb cdbf
00000350: 082b 1334 b761 a2bf a06f c8dc 1a84 a83f
00000360: 66ad 54c5 2916 8fbf e697 9ffe f185 c7bf
00000370: c91d d681 af4c d1bf 4d38 6d59 93cc 9c3f
00000380: 9f73 82c1 e267 ee3f 88a2 3ed1 9550 9cbf
00000390: 31e7 b8a4 26a7 c9bf 205e 4783 f9b6 dbbf
000003a0: 0ca0 3339 d862 b0bf ec8c 4d38 2a0e c8bf
000003b0: b351 1d44 d525 7fbf 24fa f735 0a6a b0bf
000003c0: 9f1c fc52 9707 d43f da94 d14a 60d3 b73f
000003d0: c4de 27ae 9d45 93bf 9c3b 1fa7 ba83 b43f
000003e0: 873e 1a1c 50a7 cfbf 3594 faa0 b017 e4bf
000003f0: a816 c3ef 81f1 d9bf bbae aaf8 28e9 bbbf
00000400: d877 6249 8c97 a53f f424 d660 4f60 bcbf
00000410: 8982 ef90 32c4 c13f dd52 5572 3f88 913f
00000420: 2678 0e6e 300e d03f dc50 ed7c c508 c83f
00000430: ef81 b3cb 6a76 65bf a977 3b46 48db a53f
00000440: 04e9 02c6 efcf 883f 35bc 217e 2f1b dc3f
00000450: 7f07 ccba f232 bd3f 8c29 14da 2994 bb3f
00000460: 0ed5 52ad 49d3 c1bf a021 320f 6de5 d83f
00000470: eb30 6ac7 df7a c03f 0169 5a1a 9cd6 c83f
00000480: 6955 43ce 2ef6 c73f 44bf cb57 215a 54bf
00000490: 17ae f854 b545 523f 5f84 46f8 0ff0 c43f
000004a0: 5420 be2b ef25 da3f c7df 7e91 1f78 cb3f
000004b0: 65c9 fa35 9db9 73bf 3656 965a 7721 be3f
000004c0: 033a 6d60 e505 de3f af38 ff87 1b71 c0bf
000004d0: 62fa c459 f530 d53f a1c6 3962 3907 a9bf
000004e0: b87a 299e 32b9 c73f e5f1 cdfe a804 953f
000004f0: b0f7 a141 3560 cd3f 9843 1513 9cd9 c53f
00000500: c3ae 97b5 52a9 f23f 7ab6 1491 7e0c ccbf
00000510: 5047 6640 218c d53f 4ce6 913f b975 b43f
00000520: d73e 6026 4b9a d23f cae3 325b 1305 b43f
00000530: 649f 4b71 b172 b83f 656d 5878 8c77 ad3f
00000540: f5e8 c377 db49 c53f 7db8 615b 8cbe d53f
00000550: 8c13 723d 0886 bf3f bb7d 7a93 f07f c4bf
00000560: c3b1 9406 f84b c33f 94a7 a12a 04e2 c23f
00000570: 49b8 0653 4dd0 d23f 255a 66a6 0f1d bdbf
00000580: fc5d 2d5a 3016 ecbf 70e5 1b16 adf8 c23f
00000590: f7ac a0f2 78fd 803f 182b 862a 9571 dd3f
000005a0: 4464 406d 7ce6 c53f 137c 32cb 0b92 d03f
000005b0: db80 ff2c d621 a43f 7e7f 86c7 36b1 ab3f
000005c0: 30f3 ad47 8887 cabf 2b47 fdb3 a4cb b3bf
000005d0: a88c 463b 1261 c13f 7f68 996f 1dc2 bfbf
000005e0: f43b 4094 c046 b03f 7f41 93a5 7015 f03f
000005f0: a7f8 1de9 2fc1 d03f 334f 2e34 9011 b53f
00000600: d6f4 1e54 333f d5bf 32ca 1a7d cb44 c73f
00000610: a229 870c 0dbb adbf ad80 4f51 8619 903f
00000620: 3ead 12a2 1af7 d4bf 0bdd 1052 8320 d1bf
00000630: da06 fc29 a933 813f d928 b638 bfd4 cfbf
00000640: 3d89 f5f8 f148 5d3f 263f fca3 7cdf e1bf
00000650: 46dc 6943 9e17 a9bf c29b 3c2a d8bd b7bf
00000660: 8c57 3337 acb8 b1bf 3996 2016 9a9b dcbf
00000670: 14f8 f996 daca afbf 618d fd4a bad7 c1bf
00000680: 8c44 164f 31a4 c1bf 9d33 5efa 91fc b5bf
00000690: d62c 58fa 1be9 c9bf e59e dd18 74d4 c6bf
000006a0: 4a66 121f 71a3 dbbf 8dd4 cb74 af86 c4bf
000006b0: b5ec 433d 6ccd 85bf 43df 61f0 f711 babf
000006c0: 831c c1c7 fe80 debf 8259 5310 e294 b9bf
000006d0: 631b c237 7a60 e0bf ad40 1822 f59d b63f
000006e0: 2ed5 ab09 d2e8 c7bf 28a6 be59 887d d1bf
000006f0: 7a70 92e3 5c05 cfbf 195f 331c a3c4 c6bf
00000700: 8474 c414 4a59 f5bf b65a 0895 904d c23f
00000710: bff9 bb52 c9d9 c6bf 69c2 6110 e86e d2bf
00000720: 078b 40e1 2934 d5bf 8c1f 27d1 7b18 b0bf
00000730: edd6 2107 395e cebf 36b2 a1eb a090 b2bf
00000740: 68b0 1610 bff2 c6bf d048 7950 8943 d7bf
00000750: 7090 2b47 8ca5 a6bf 6d48 6c44 289f 8cbf
00000760: ca6c 9bc5 feb0 c0bf b7b6 25f5 cdff c9bf
00000770: 9685 745d 811b c2bf 5d18 1b06 e060 95bf
00000780: 2808 7eea d84f f03f f0d0 3bb0 6e46 c1bf
00000790: af97 8af6 bfcb ccbf f594 04a5 76f4 dbbf
000007a0: 7a31 daab 29fe c3bf 80aa ae72 a87a c4bf
000007b0: 82e7 682a 3c50 b9bf 2b54 2bf7 8034 c53f
000007c0: c340 ef68 1b1e ca3f 811e 5a2a f91d 693f
000007d0: 2ff7 8515 c46a 9bbf da3f 25d8 8daa c13f
000007e0: 48bc 2343 4b7a b6bf 8520 d063 a1f0 e9bf
000007f0: eacc 1d7f 7ae5 d5bf c420 1cb6 5fb4 acbf

0.layers.2.bias f8 [64]
19.59457244812174 20.464522140364277 -17.54675876896676 18.15058486072996 16.222123022989976 -8.004018557632689 -19.5144155112307 -29.76159926772597
18.382467366124988 26.597956049436142 16.676000926011387 32.24430886875634 -31.22137305161944 -19.348893071082234 18.814649769866946 -30.672548834030902
-19.553013168795754 24.04374936810191 20.464475899447102 20.42211849980491 18.64630877392265 -18.79264726541417 18.91723893861405 27.138511478122773
-14.669246881827762 19.170414595613252 8.481543912883401 18.093646830021093 -20.63611018773158 -35.054633092064776 8.026887080223805 -18.619475442305525
-21.720296469940067 17.369751083999223 -6.965766697870011 -17.865246317781548 20.422807338440983 18.472503498508406 0.10023805167858357 -19.04950332999589
20.287608693058914 -22.179956205520888 16.228521307714047 23.422145975407513 -18.0955314001759 20.806493042843922 19.02265417544466 -17.967562044920875
-16.513373315899123 17.83961571629572 18.23571225835201 21.60568824581274 -18.596744479804624 -17.53294016939821 -18.30571821906196 18.20305720650258
-19.30180571681718 20.730211973795296 18.033165566358143 -19.166764906604985 19.81391771739197 38.38288238936125 21.424049382118756 19.96935187947906
00000000: 18c9 63e6 3598 3340 eb21 49ec ea76 3440
00000010: 7283 f761 f88b 31c0 9f1b bcba 8c26 3240
00000020: 3c6e ef0d dd38 3040 0f38 6bb8 0e02 20c0
00000030: 7d4a 25bc b083 33c0 648a 6b2b f8c2 3dc0
00000040: 494b 9d61 e961 3240 0ac6 cca5 1399 3a40
00000050: dd48 8d65 0ead 3040 33b7 5483 451f 4040
00000060: d5eb 80e7 ab38 3fc0 6519 6a0e 5159 33c0
00000070: c045 27e3 8cd0 3240 2b20 0f29 2cac 3ec0
00000080: 2f3c 6245 928d 33c0 e737 9928 330b 3840
00000090: cee7 7de4 e776 3440 dcb2 3ff5 0f6c 3440
000000a0: 9b1d e77d 74a5 3240 bb37 62ee eaca 32c0
000000b0: 11f7 cb2b d0ea 3240 6ea8 fc7c 7523 3b40
000000c0: e9cc fc86 a756 2dc0 84eb 7a4a a02b 3340
000000d0: 1bd8 7aec 8cf6 2040 8e50 183d f917 3240
000000e0: a5f5 041e d8a2 34c0 4ad9 9737 fe86 41c0
000000f0: 0a7e b424 c40d 2040 9b60 4df1 959e 32c0
00000100: 1cd1 7559 65b8 35c0 ed6f cd01 a85e 3140
00000110: a2ab fbf1 f1dc 1bc0 2edb 5dc8 80dd 31c0
00000120: e21c 0b1a 3d6c 3440 d556 41fd f578 3240
00000130: d836 c671 33a9 b93f 1d60 0f40 ac0c 33c0
00000140: bcbb 2ab9 a049 3440 aa6c 219c 112e 36c0
00000150: 2c12 575f 803a 3040 6783 36c2 116c 3740
00000160: 207f efbe 7418 32c0 5777 fb53 76ce 3440
00000170: 15a7 fea9 cc05 3340 3ac9 6b25 b2f7 31c0
00000180: 026d 026f 6c83 30c0 9fb2 3a0e f1d6 3140
00000190: 60e3 78a3 573c 3240 5b56 8762 0e9b 3540
000001a0: 53d4 083f c498 32c0 3e4a 56c4 6e88 31c0
000001b0: 98a9 988c 434e 32c0 4d25 9d8e fb33 3240
000001c0: c379 b323 434d 33c0 3199 022c efba 3440
000001d0: 8edc de89 7d08 3240 29fd db1a b12a 33c0
000001e0: 5fd5 59e9 5cd0 3340 ad42 464a 0231 4340
000001f0: cd16 1480 8e6c 3540 bfad dc71 27f8 3340

1.weight f8 [1, 64]
0.3064962861523407 0.149565223870796 0.16029358622458495 0.2303353666941661 0.006292977168569671 0.10267306923096994 0.14643494760610531 0.5105718450866753
0.19590150283982558 0.7033567574743782 0.19729438364898944 0.40214611088178914 0.38962996276919587 0.27080754909851074 0.28976483347857707 0.48909203766975584
0.28187605992873377 0.3779134450837219 0.3258769444112407 0.25688601338161415 0.33794110798278426 0.2093607013533265 0.2667103379632548 0.30600043347722977
0.13619399695024278 0.21860387954171062 0.2071779286721256 0.1769485396111894 0.3147986362563253 0.41700618054891886 0.09786798074262158 0.28492226051294206
0.9203531229569127 0.035265904404482296 -0.10774171827593669 0.24326562712124983 0.3080743053176566 0.2876927351356336 -0.5305856651930331 0.3306739581412833
0.16190509569427175 0.33178450919847113 0.20152188016560507 0.28444594724759814 0.2049874646756676 0.314235873852171 0.36118628728392727 0.2583048321201851
-0.07350614212626963 0.22226608965472106 0.2235761347415241 0.35345729101392187 0.00017555989790354312 0.2772387909405618 0.2036636588720732 0.21996447766993818
0.16149323553027922 0.16802096344981965 0.20179368567117878 0.1434423829450127 0.23679783963642143 0.7681811038173804 0.33880414198785896 0.2545348096967806
00000000: 2aaa 5799 a29d d33f 2d6e 9208 f424 c33f
00000010: 4aec 4b0f 8084 c43f 6824 8819 a17b cd3f
00000020: 69bd 2232 aac6 793f d6e6 8642 c848 ba3f
00000030: 50d7 7a5f 61be c23f 13fb 1cc4 9a56 e03f
00000040: 3597 f7e9 4c13 c93f e4bc d807 e681 e63f
00000050: 447b ba3e f140 c93f 1fdb 9c0a c3bc d93f
00000060: 4baa e882 b2ef d83f 49d5 b82f e954 d13f
00000070: 6691 d4cc 818b d23f 74a3 a1b0 484d df3f
00000080: f4d4 bae2 410a d23f 199c d6df bb2f d83f
00000090: 6e11 b1f8 2adb d43f c786 9108 d270 d03f
000000a0: dfa4 b0bd d3a0 d53f 17a9 b0da 54cc ca3f
000000b0: 95aa c33c c811 d13f 792d 96d7 8295 d33f
000000c0: 5f0a 680d ce6e c13f 0687 b440 36fb cb3f
000000d0: 40c6 0c6e ce84 ca3f 103e 5aef 3fa6 c63f
000000e0: dcf6 e22d a925 d43f a3ff ebb0 3ab0 da3f
000000f0: 5778 9d40 e00d b93f f58c b393 2a3c d23f
00000100: 91e2 7b64 8873 ed3f c087 2964 5f0e a23f
00000110: 57f5 6814 f694 bbbf 7604 5dfc 5323 cf3f
00000120: bbf1 844a 7db7 d33f d913 2dca 8e69 d23f
00000130: 1d60 f7c9 8efa e0bf 8ac3 f61a c329 d53f
00000140: d604 8861 4eb9 c43f 06eb 1418 f53b d53f
00000150: a6ae 5e0e 78cb c93f 8b1f 3ac6 5c34 d23f
00000160: fb9b 6f7c 073d ca3f 1e34 5bc8 701c d43f
00000170: ef7a e916 ad1d d73f c1b7 96fd 1088 d03f
00000180: eac9 7c6c 4cd1 b2bf 98d5 0919 3773 cc3f
00000190: 7ec2 708d 249e cc3f ce00 5c54 0b9f d63f
000001a0: 2c73 3b0a d002 273f 446d 11c5 47be d13f
000001b0: e59f 1e99 a611 ca3f bbe2 efc6 cb27 cc3f
000001c0: ea5a 9072 cfab c43f fc99 87ff b581 c53f
000001d0: 3e9e 3f20 60d4 c93f 39f8 cdeb 515c c23f
000001e0: b03d 8040 644f ce3f 65a0 c989 f094 e83f
000001f0: 9994 6591 f7ae d53f 25d7 d55e 4c4a d03f

1.bias f8 [1]
-49.56775535109835
00000000: 578c 1435 acc8 48c0
